data.pth (torch, 5418 bytes, 6 tensors)

l1.weight f4 [8, 54]
000000 ae 7e e7 3e 34 47 11 3f 1c a5 fa be 6d 56 13 3f
       0.45213836 0.5674927 -0.48954093 0.5755375
000010 97 fc 36 3d bf 03 6c 3f 90 80 2b be 24 42 89 be
       0.044674482 0.92193216 -0.16748261 -0.26808274
000020 f4 62 cc be 3f f3 83 be ce 79 04 3f 9d 02 6c be
       -0.39919245 -0.2577152 0.5174836 -0.23047872
000030 03 93 c6 bc 4e 8e 98 be 63 bd 93 3e 49 23 9a be
       -0.024240023 -0.2979607 0.28855428 -0.30105045
000040 07 0e ca 3e 36 26 55 3f 04 3a 6f 3e f9 69 22 3f
       0.39463827 0.8326143 0.23361975 0.6344295
000050 a3 cc c7 3e fe 3e 21 3f 85 ce 15 3f c4 75 89 3e
       0.39023313 0.62986743 0.5851825 0.2684766
000060 8a e1 51 be 2c 5c cb 3e 4a 19 3c 3e 4f 7f c5 ba
       -0.20496193 0.3971876 0.18369022 -0.0015067848
000070 98 c8 ae 3e ce dd 32 bb b1 1f 20 3f 5f db e7 be
       0.34137416 -0.002729285 0.6254836 -0.45284554
000080 ea 6d 12 3e cb af 92 be 46 13 64 3e fe a3 29 be
       0.14299741 -0.28649744 0.22272977 -0.16566464
000090 f0 20 22 3e 19 89 fb be a5 5e 6b bd 83 04 ff bd
       0.15832877 -0.49128035 -0.057463307 -0.124520324
0000a0 df dd 12 3f f4 25 05 3e e4 e0 6d be 21 06 ac 3e
       0.573698 0.13002759 -0.2323032 0.33598426
0000b0 f4 82 dd be 03 08 93 3e 51 21 e1 3e 31 cb b4 3e
       -0.43263972 0.2871705 0.4397073 0.35311273
0000c0 8c c6 ad 3e 85 45 b8 3e 4f fc 62 be 9a c1 a3 3e
       0.33940542 0.3599054 -0.2216656 0.31983644
0000d0 de 09 4f be d9 d0 d4 3e 95 8a 84 3e 2a 56 ba be
       -0.20218608 0.41565588 0.2588698 -0.36393863
0000e0 77 d0 37 3f 30 5a 5e be 57 06 27 3e cc b4 0e 3f
       0.7180247 -0.21714091 0.16311012 0.55744624
0000f0 14 8b 0a 3f 41 e5 11 3f 31 ef e5 3e d0 85 2e 3f
       0.54118466 0.5699044 0.4490905 0.6817293
000100 01 2c 93 be dd 9e b7 be 69 2b e1 3e 07 3c 7f bd
       -0.2874451 -0.3586339 0.43978432 -0.062313106
000110 f9 4a 05 be cb a4 86 be 0e b8 71 be ef e9 f1 3e
       -0.13016881 -0.26297602 -0.23605368 0.4724879
000120 70 44 b0 3e c0 0e 06 bf b8 9d 9a 3e 4b 22 ff be
       0.34427214 -0.52366257 0.30198455 -0.4983085
000130 31 0d 06 bf 5c 2e 26 bf a6 44 8c 3e 60 f5 cb be
       -0.5236388 -0.6491449 0.27396125 -0.39835644
000140 ac 3f 29 3f db 2c ed be 19 b7 f8 3e af 56 b6 be
       0.6611278 -0.46323285 0.48577192 -0.3561301
000150 8e 7c 20 3e 89 2e 65 be 0f da 36 3d 08 79 20 3f
       0.15672514 -0.22381033 0.04464155 0.6268468
000160 12 e1 46 be 41 be 93 be 06 33 cb 3e 0f e9 29 3f
       -0.19421795 -0.2885609 0.39687365 0.66371244
000170 61 d0 1b 3f d6 2b 17 3f b0 81 55 3e 23 33 d5 3e
       0.60864836 0.59051263 0.20850253 0.41640577
000180 65 0c 40 be b0 aa 69 bd f9 a1 18 3f 4f f7 0e be
       -0.18754728 -0.057047546 0.5962215 -0.13961528
000190 8a bb ab 3e 6f 8a d2 3d 3d 6b 50 3e bf 88 27 3f
       0.33541518 0.1028031 0.20353408 0.6544303
0001a0 c7 8d a7 be 16 14 e7 3e a7 38 00 3f b9 c6 15 3f
       -0.32725355 0.45132512 0.50086445 0.5850635
0001b0 65 05 35 3e 55 bc 88 3d 5a 15 f6 3e 73 3d 5b be
       0.17677839 0.066765465 0.48063165 -0.2141016
0001c0 62 cf bd bd 7f a0 bc 3e 82 de ab 3e 9c 89 9b 3e
       -0.09268071 0.368412 0.33568197 0.30378425
0001d0 4f 4f 03 3f 95 d4 a8 3e 27 53 38 be af ad e8 3d
       0.5129289 0.32974687 -0.1800047 0.113612525
0001e0 c5 23 e3 bc bc 37 80 3e 44 53 3b bd 5c dc ce bd
       -0.027727017 0.25042522 -0.045733705 -0.10100624
0001f0 4c eb 81 be 40 be ca 3e df 03 95 be d1 2b de be
       -0.2537483 0.39598274 -0.29104516 -0.43392804
000200 78 11 45 3e b0 35 de be 3e 40 de be 93 cf 11 bf
       0.19244945 -0.43400335 -0.43408388 -0.5695736
000210 4f 4b 86 3e 51 10 ad bd 04 f4 ec bd 61 3e 88 be
       0.2622933 -0.08450378 -0.1156998 -0.2661009
000220 c2 3a 37 bd 15 3d e1 be 0d 4f db 3d e6 5c 3a 3e
       -0.04473377 -0.43991914 0.10708437 0.181995
000230 90 1b a0 3e c8 c2 14 3f 5c 0f 68 be 88 cd 38 3d
       0.3127103 0.5810971 -0.22662109 0.045117885
000240 30 bd f2 bc 22 82 25 3f 00 55 a2 3e 52 41 a6 3e
       -0.029631227 0.6465169 0.31705475 0.3247171
000250 66 d5 31 3e 83 ee aa be 9e 86 e2 3d 05 4e 03 be
       0.17366561 -0.33385095 0.110608324 -0.12822731
000260 df e7 9c 3e 3f 49 08 bd d6 03 32 3f dc d6 6d 3e
       0.30645654 -0.033272978 0.69537103 0.23226494
000270 34 63 0a be 24 be 61 be ae c3 e1 3d f6 63 d3 bd
       -0.13514405 -0.22045189 0.11023651 -0.103218004
000280 95 c5 4c 3e b3 9c 6e 3e 59 8d cf 3e 75 9b 21 3e
       0.19997247 0.23301964 0.40537527 0.15781958
000290 0e 5a 6a 3d f4 4b 10 be 3b 2a 2e be 5f 88 aa be
       0.05721479 -0.14091474 -0.17008297 -0.33307168
0002a0 6c 58 ed 3d 1a 7a 69 3d 31 16 87 3e ac 19 2f be
       0.11589131 0.05700121 0.26384118 -0.17099637
0002b0 f1 4e 15 be cf e4 e8 3e e6 c0 5f 3e 75 99 d3 3e
       -0.14580895 0.45487067 0.21850929 0.41328016
0002c0 12 6d 91 bc df 8e 83 3c ef 15 50 be bf bc b2 be
       -0.017752204 0.016059337 -0.20320867 -0.34909627
0002d0 0d 3a d9 3e f1 c2 b2 be 93 95 89 3e 8e b5 b2 be
       0.42427102 -0.34914353 0.2687193 -0.3490414
0002e0 54 b6 b2 be 03 52 98 be 46 95 29 3d aa 2e 92 be
       -0.3490473 -0.2975007 0.041402124 -0.28551227
0002f0 a0 c4 22 3f f1 e6 36 be e8 c9 04 3f 8b 96 91 be
       0.63581276 -0.17861535 0.51870584 -0.28435168
000300 79 69 8a be 49 51 ba 3e 24 e8 93 3e ae 9d 5a bd
       -0.27033594 0.3639014 0.28888047 -0.05337303
000310 b7 84 43 bd ff d9 5e bb 80 1c f0 3e ae 91 77 3d
       -0.04773399 -0.0034004448 0.46896744 0.060441665
000320 d9 a9 27 bc 84 d0 34 3c e3 b9 48 be 52 3f 1d 3f
       -0.010233366 0.011036042 -0.1960216 0.61424744
000330 96 08 9c 3e 95 fa ee bc e4 96 80 3e 8f 25 68 be
       0.304753 -0.029172221 0.2511512 -0.22670577
000340 f1 77 4e 3f bf ad d8 3e 72 ed c6 3d a3 56 4f 3f
       0.80651766 0.42320058 0.09713258 0.8099157
000350 78 df 6a 3d b0 28 20 3f 50 49 b5 3d 72 7d f3 3d
       0.057342023 0.62562084 0.08851874 0.11889161
000360 44 9b 3a be 03 24 77 3e ba 04 ad be 3b e2 f2 3e
       -0.18223292 0.24134831 -0.3379267 0.47438225
000370 5f 8c dc 3e ab 55 fe be f2 80 18 bd 76 17 9a be
       0.43075845 -0.49674734 -0.037232347 -0.30096024
000380 30 ac 87 be 47 82 a1 bd 0a a1 04 3f 32 2b 77 be
       -0.26498556 -0.078861766 0.51808226 -0.24137571
000390 70 c7 fd 3e e8 a6 0b be 27 00 05 3e 07 dd 7d be
       0.4956622 -0.13637888 0.1298834 -0.24791346
0003a0 cb 95 06 3f 36 43 07 bf 14 1d 02 3f d1 3b 41 3f
       0.52572316 -0.5283693 0.5082562 0.754819
0003b0 9f bd 52 be ce 31 4a 3f e4 c7 1e 3f 62 46 ce 3e
       -0.20580147 0.78982246 0.6202376 0.40288073
0003c0 fa e8 56 be 43 37 e9 3e ed d6 ee 3e cb 72 7f 3e
       -0.20987311 0.45549974 0.4664835 0.24946134
0003d0 e4 6f 56 3e 63 f7 74 3e b4 d8 ab be d9 ce a1 be
       0.2094112 0.23922496 -0.3356377 -0.31603125
0003e0 58 15 dd bc ea 51 99 be 73 7d a1 3e 99 10 1e be
       -0.026987717 -0.29945308 0.31541023 -0.15436019
0003f0 58 1b 24 3e ab 12 7b be 54 b0 fa 3c 26 58 cc 3d
       0.16026056 -0.2451884 0.030601658 0.099777505

l1.bias f4 [8]
000000 7a d1 92 3f d7 0e 06 3f 9d 26 de 3e fd b6 b2 3e
       1.1470177 0.52366394 0.43388835 0.34905234
000010 39 4a 07 3f a7 68 44 3f d9 6a 81 3e b5 95 62 3f
       0.5284763 0.76722187 0.2527683 0.88509685

l2.weight f4 [8, 8]
000000 30 87 07 3f 1e f9 80 3e 1f d6 39 be 49 4d 9f 3f
       0.52940655 0.2519006 -0.18148087 1.244546
000010 26 4f 9d 3c c9 74 91 3f 56 a8 9d 3f b2 8c 85 bf
       0.01920278 1.1363765 1.2316997 -1.0433562
000020 c6 60 0d be 7e 11 72 be 80 bc 7e be f1 6f 66 be
       -0.13806447 -0.23639485 -0.24876595 -0.2250364
000030 f6 69 d9 bd 60 c2 c7 bc 3e 7f 9a be 80 79 5e bc
       -0.106159136 -0.024384677 -0.30175203 -0.013578773
000040 c9 18 78 3f 88 79 88 bd f7 27 b9 3e fb 97 09 3e
       0.9691282 -0.06663805 0.36163303 0.13436882
000050 27 24 b1 bf 6e c9 86 3f dc b6 6a be f8 b2 60 be
       -1.3839158 1.0530221 -0.22921318 -0.21943271
000060 5b cd a5 3f 8f e3 2e be 2b 89 5c bf d8 e2 b8 be
       1.2953295 -0.17078994 -0.861468 -0.36110568
000070 65 36 97 3f d9 38 64 3f 53 ab d0 3e 73 75 f9 bc
       1.1813475 0.8914924 0.4075571 -0.030451512
000080 01 17 27 3f d6 e2 c2 3f 8e 40 3d 3f fc e3 61 3f
       0.65269476 1.5225475 0.7392663 0.882385
000090 cb f3 2b bf 61 c5 82 be 76 43 4c be dc ad e2 be
       -0.67168874 -0.25541213 -0.1994761 -0.4427327
0000a0 29 bb 0b 3f 2c 80 62 3f ad d4 90 3f 8c e5 a9 3e
       0.5458246 0.88476825 1.1314903 0.33182943
0000b0 18 6a 61 bf 41 75 9e 3e 94 18 f8 be db 8b cf be
       -0.8805251 0.30948833 -0.48456252 -0.4053639
0000c0 59 0c 42 3e b8 6b f6 be 72 83 13 3f b6 85 82 3f
       0.18950023 -0.48129058 0.57622445 1.0197055
0000d0 c7 0e 90 bf b3 ce 55 3f 40 cf 9d be ff 17 82 3f
       -1.125451 0.8351852 -0.30822182 1.0163573
0000e0 cc bf 9e 3f c4 09 cb be af 03 53 be 4d cd bb bf
       1.2402282 -0.39655888 -0.20606874 -1.4672028
0000f0 a7 af c1 3e 12 b0 6c 3e 18 d2 79 be 23 62 a1 3f
       0.37829325 0.2311404 -0.2439655 1.2608074

l2.bias f4 [8]
000000 f3 95 6c be 40 c7 df bd d8 49 ba be 7a ae e9 3e
       -0.23104076 -0.10926676 -0.36384463 0.45640928
000010 78 d4 0e 3f e9 68 c6 3e 2f 71 40 bc 72 95 7b 3f
       0.5579295 0.38751915 -0.011745735 0.9827491

l3.weight f4 [7, 8]
000000 c4 91 45 bf 65 62 8b 3e e6 a8 88 bf 26 82 79 bf
       -0.77175546 0.27223507 -1.0676544 -0.97464216
000010 6c a3 60 bf 33 d9 58 bf 3c 59 2d 3f 38 1e d4 3e
       -0.8774936 -0.8470642 0.67714286 0.41429305
000020 15 38 0c 3f be 4e 7a be 49 76 06 3d 9e 1d cc 3e
       0.54773074 -0.244441 0.03282765 0.39866346
000030 c2 fc 9f bf bf 22 94 bf c3 02 bf bf c7 19 1e be
       -1.249901 -1.1573104 -1.4922718 -0.15439521
000040 77 60 b7 bf 12 e9 58 3e 00 f9 ce 3c a6 70 a4 be
       -1.4326314 0.2118266 0.025265217 -0.32117194
000050 7d 5e 06 3f b4 53 50 3d 68 a8 af be 2a 8f d1 3e
       0.5248793 0.050861076 -0.3430817 0.40929538
000060 2c 48 a8 bf f0 97 42 bd 66 df e0 bf c0 93 59 3f
       -1.3147025 -0.04750818 -1.7568176 0.84991074
000070 43 4d 2d bf 82 48 af bf bb df 29 bf ff a2 36 3f
       -0.6769602 -1.3694003 -0.6635701 0.7134246
000080 41 be 0d 3f c0 40 ce bc e0 12 a6 bf 4c a6 0f 3e
       0.5536843 -0.02517736 -1.297451 0.14028281
000090 59 82 c1 3e fa 84 18 bf 9c 6a 8f bf b3 fc 91 bf
       0.3779476 -0.59577906 -1.120441 -1.1405243
0000a0 78 83 27 bf cd 81 a8 be 04 e2 b5 bf 30 bd 49 bf
       -0.6543498 -0.3291153 -1.42096 -0.788043
0000b0 1d 83 89 3f eb 90 26 3f c7 07 a9 bf 84 4c 75 bf
       1.0743138 0.6506488 -1.3205498 -0.9581988
0000c0 e8 50 95 3e 10 e2 82 bd e3 35 d8 3e 70 19 0e bf
       0.2916329 -0.06390774 0.42228612 -0.55507565
0000d0 8b 95 0e bd 10 7d 99 3e 12 89 ad 3e 70 89 8a bf
       -0.034810584 0.29978228 0.3389364 -1.0823193

l3.bias f4 [7]
000000 40 11 43 3e 46 42 b1 3e 37 7c 95 be 51 f8 a3 bb
       0.19049549 0.34620875 -0.2919633 -0.005003967
000010 8b 75 2a bd cd 7e ab 3e cd 71 c0 be
       -0.041616004 0.3349518 -0.37586823
